…
(D:\conda_envs\tf) PS D:\studie\machine learning practical> & D:/conda_envs/tf/python.exe "d:/studie/machine learning practical/Tijn_Amir_Naut/fashion_mnist/data/preprocessing.py"
[name: "/device:CPU:0"
device_type: "CPU"
memory_limit: 268435456
locality {
}
incarnation: 8054164916786674048
xla_global_id: -1
, name: "/device:GPU:0"
device_type: "GPU"
memory_limit: 6277824512
locality {
bus_id: 1
links {
}
}
incarnation: 4827802176794602116
physical_device_desc: "device: 0, name: NVIDIA GeForce RTX 2070 with Max-Q Design, pci bus id: 0000:01:00.0, compute capability: 7.5"
xla_global_id: 416903419
]
training CNN
Model: "sequential"

---

# Layer (type) Output Shape Param

conv2d (Conv2D) (None, 26, 26, 32) 320

max_pooling2d (MaxPooling2D (None, 13, 13, 32) 0
)

dropout (Dropout) (None, 13, 13, 32) 0

conv2d_1 (Conv2D) (None, 11, 11, 64) 18496

max_pooling2d_1 (MaxPooling (None, 5, 5, 64) 0
2D)

dropout_1 (Dropout) (None, 5, 5, 64) 0

flatten (Flatten) (None, 1600) 0

dense (Dense) (None, 128) 204928

dropout_2 (Dropout) (None, 128) 0

dense_1 (Dense) (None, 10) 1290

=================================================================
Total params: 225,034
Trainable params: 225,034
Non-trainable params: 0

---

Traceback (most recent call last):
File "d:\studie\machine learning practical\Tijn_Amir_Naut\fashion_mnist\data\preprocessing.py", line 154, in <module>
cnn_results = random_search.fit(X_train.reshape(-1, 28, 28, 1), y_train)
File "D:\conda_envs\tf\lib\site-packages\sklearn\base.py", line 1152, in wrapper
…
3000/3000 [==============================] - 15s 5ms/step - loss: 0.4272 - accuracy: 0.8480
Epoch 7/10
3000/3000 [==============================] - 15s 5ms/step - loss: 0.4226 - accuracy: 0.8499
Epoch 8/10
3000/3000 [==============================] - 15s 5ms/step - loss: 0.4169 - accuracy: 0.8506
Epoch 9/10
3000/3000 [==============================] - 14s 5ms/step - loss: 0.4104 - accuracy: 0.8536
Epoch 10/10
3000/3000 [==============================] - 15s 5ms/step - loss: 0.4085 - accuracy: 0.8552
375/375 [==============================] - 1s 2ms/step
Model: "sequential"

---

# Layer (type) Output Shape Param

conv2d (Conv2D) (None, 26, 26, 16) 160

max_pooling2d (MaxPooling2D (None, 13, 13, 16) 0
)

dropout (Dropout) (None, 13, 13, 16) 0

conv2d_1 (Conv2D) (None, 11, 11, 32) 4640

max_pooling2d_1 (MaxPooling (None, 5, 5, 32) 0
2D)

dropout_1 (Dropout) (None, 5, 5, 32) 0

flatten (Flatten) (None, 800) 0

dense (Dense) (None, 64) 51264

dropout_2 (Dropout) (None, 64) 0

dense_1 (Dense) (None, 10) 650

=================================================================
Total params: 56,714
Trainable params: 56,714
Non-trainable params: 0

---

Epoch 1/10
3000/3000 [==============================] - 15s 5ms/step - loss: 0.7113 - accuracy: 0.7430
Epoch 2/10
3000/3000 [==============================] - 14s 5ms/step - loss: 0.5117 - accuracy: 0.8161
Epoch 3/10
3000/3000 [==============================] - 15s 5ms/step - loss: 0.4648 - accuracy: 0.8367
…
3000/3000 [==============================] - 14s 5ms/step - loss: 0.4337 - accuracy: 0.8473
Epoch 7/10
3000/3000 [==============================] - 14s 5ms/step - loss: 0.4241 - accuracy: 0.8511
Epoch 8/10
3000/3000 [==============================] - 15s 5ms/step - loss: 0.4298 - accuracy: 0.8479
Epoch 9/10
3000/3000 [==============================] - 16s 5ms/step - loss: 0.4234 - accuracy: 0.8503
Epoch 10/10
3000/3000 [==============================] - 17s 6ms/step - loss: 0.4198 - accuracy: 0.8537
375/375 [==============================] - 1s 3ms/step
Model: "sequential"

---

# Layer (type) Output Shape Param

conv2d (Conv2D) (None, 26, 26, 8) 80

max_pooling2d (MaxPooling2D (None, 13, 13, 8) 0
)

dropout (Dropout) (None, 13, 13, 8) 0

conv2d_1 (Conv2D) (None, 11, 11, 16) 1168

max_pooling2d_1 (MaxPooling (None, 5, 5, 16) 0
2D)

dropout_1 (Dropout) (None, 5, 5, 16) 0

flatten (Flatten) (None, 400) 0

dense (Dense) (None, 32) 12832

dropout_2 (Dropout) (None, 32) 0

dense_1 (Dense) (None, 10) 330

=================================================================
Total params: 14,410
Trainable params: 14,410
Non-trainable params: 0

---

Epoch 1/10
3000/3000 [==============================] - 17s 5ms/step - loss: 0.9081 - accuracy: 0.6606  
Epoch 2/10
3000/3000 [==============================] - 15s 5ms/step - loss: 0.6861 - accuracy: 0.7370
Epoch 3/10
3000/3000 [==============================] - 17s 6ms/step - loss: 0.6336 - accuracy: 0.7568
…
