[name: "/device:CPU:0"
device_type: "CPU"
memory_limit: 268435456
locality {
}
incarnation: 11822576712190144197
xla_global_id: -1
]
training CNN
Model: "sequential"
_________________________________________________________________
 Layer (type)                Output Shape              Param #   
=================================================================
 conv2d (Conv2D)             (None, 26, 26, 8)         80        
                                                                 
 max_pooling2d (MaxPooling2D  (None, 13, 13, 8)        0         
 )                                                               
                                                                 
 dropout (Dropout)           (None, 13, 13, 8)         0         
                                                                 
 conv2d_1 (Conv2D)           (None, 11, 11, 16)        1168      
                                                                 
 max_pooling2d_1 (MaxPooling  (None, 5, 5, 16)         0         
 2D)                                                             
                                                                 
 dropout_1 (Dropout)         (None, 5, 5, 16)          0         
                                                                 
 flatten (Flatten)           (None, 400)               0         
                                                                 
 dense (Dense)               (None, 32)                12832     
                                                                 
 dropout_2 (Dropout)         (None, 32)                0         
                                                                 
 dense_1 (Dense)             (None, 10)                330       
                                                                 
=================================================================
Total params: 14,410
Trainable params: 14,410
Non-trainable params: 0
_________________________________________________________________
Epoch 1/10

   1/3000 [..............................] - ETA: 31:35 - loss: 2.2884 - accuracy: 0.0000e+00
  11/3000 [..............................] - ETA: 15s - loss: 2.3004 - accuracy: 0.0739      
…
