Model: "sequential"
_________________________________________________________________
 Layer (type)                Output Shape              Param #   
=================================================================
Model: "sequential"
_________________________________________________________________
 Layer (type)                Output Shape              Param #   
=================================================================
 conv2d (Conv2D)             (None, 26, 26, 16)        160       
                                                                 
 max_pooling2d (MaxPooling2D  (None, 13, 13, 16)       0         
 )                                                               
                                                                 
 dropout (Dropout)           (None, 13, 13, 16)        0         
                                                                 
 conv2d_1 (Conv2D)           (None, 11, 11, 32)        4640      
                                                                 
 max_pooling2d_1 (MaxPooling  (None, 5, 5, 32)         0         
 2D)                                                             
                                                                 
 dropout_1 (Dropout)         (None, 5, 5, 32)          0         
                                                                 
 flatten (Flatten)           (None, 800)               0         
                                                                 
 conv2d (Conv2D)             (None, 26, 26, 16)        160       
                                                                 
 dense (Dense)               (None, 64)                51264     
                                                                 
 max_pooling2d (MaxPooling2D  (None, 13, 13, 16)       0         
 dropout_2 (Dropout)         (None, 64)                0         
 )                                                               
                                                                 
                                                                 
 dense_1 (Dense)             (None, 10)                650       
 dropout (Dropout)           (None, 13, 13, 16)        0         
                                                                 
                                                                 
=================================================================
 conv2d_1 (Conv2D)           (None, 11, 11, 32)        4640      
                                                                 
 max_pooling2d_1 (MaxPooling  (None, 5, 5, 32)         0         
 2D)                                                             
                                                                 
 dropout_1 (Dropout)         (None, 5, 5, 32)          0         
                                                                 
Total params: 56,714
Trainable params: 56,714
Non-trainable params: 0
_________________________________________________________________
 flatten (Flatten)           (None, 800)               0         
                                                                 
 dense (Dense)               (None, 64)                51264     
                                                                 
 dropout_2 (Dropout)         (None, 64)                0         
                                                                 
 dense_1 (Dense)             (None, 10)                650       
                                                                 
=================================================================
Total params: 56,714
Trainable params: 56,714
Non-trainable params: 0
_________________________________________________________________
Model: "sequential"
_________________________________________________________________
 Layer (type)                Output Shape              Param #   
=================================================================
 conv2d (Conv2D)             (None, 26, 26, 8)         80        
                                                                 
 max_pooling2d (MaxPooling2D  (None, 13, 13, 8)        0         
 )                                                               
                                                                 
 dropout (Dropout)           (None, 13, 13, 8)         0         
                                                                 
 conv2d_1 (Conv2D)           (None, 11, 11, 16)        1168      
                                                                 
 max_pooling2d_1 (MaxPooling  (None, 5, 5, 16)         0         
 2D)                                                             
                                                                 
 dropout_1 (Dropout)         (None, 5, 5, 16)          0         
                                                                 
 flatten (Flatten)           (None, 400)               0         
                                                                 
 dense (Dense)               (None, 32)                12832     
                                                                 
 dropout_2 (Dropout)         (None, 32)                0         
                                                                 
 dense_1 (Dense)             (None, 10)                330       
                                                                 
=================================================================
Total params: 14,410
Trainable params: 14,410
Non-trainable params: 0
_________________________________________________________________
Model: "sequential_1"
_________________________________________________________________
 Layer (type)                Output Shape              Param #   
=================================================================
 conv2d_2 (Conv2D)           (None, 26, 26, 8)         80        
                                                                 
 max_pooling2d_2 (MaxPooling  (None, 13, 13, 8)        0         
 2D)                                                             
                                                                 
 dropout_3 (Dropout)         (None, 13, 13, 8)         0         
                                                                 
 conv2d_3 (Conv2D)           (None, 11, 11, 16)        1168      
                                                                 
 max_pooling2d_3 (MaxPooling  (None, 5, 5, 16)         0         
 2D)                                                             
                                                                 
 dropout_4 (Dropout)         (None, 5, 5, 16)          0         
                                                                 
 flatten_1 (Flatten)         (None, 400)               0         
                                                                 
 dense_2 (Dense)             (None, 32)                12832     
                                                                 
 dropout_5 (Dropout)         (None, 32)                0         
                                                                 
 dense_3 (Dense)             (None, 10)                330       
                                                                 
=================================================================
Total params: 14,410
Trainable params: 14,410
Non-trainable params: 0
_________________________________________________________________
Model: "sequential"
_________________________________________________________________
 Layer (type)                Output Shape              Param #   
=================================================================
 conv2d (Conv2D)             (None, 26, 26, 16)        160       
                                                                 
 max_pooling2d (MaxPooling2D  (None, 13, 13, 16)       0         
 )                                                               
                                                                 
 dropout (Dropout)           (None, 13, 13, 16)        0         
                                                                 
 conv2d_1 (Conv2D)           (None, 11, 11, 32)        4640      
                                                                 
 max_pooling2d_1 (MaxPooling  (None, 5, 5, 32)         0         
 2D)                                                             
                                                                 
 dropout_1 (Dropout)         (None, 5, 5, 32)          0         
                                                                 
 flatten (Flatten)           (None, 800)               0         
                                                                 
 dense (Dense)               (None, 64)                51264     
                                                                 
 dropout_2 (Dropout)         (None, 64)                0         
                                                                 
 dense_1 (Dense)             (None, 10)                650       
                                                                 
=================================================================
Total params: 56,714
Trainable params: 56,714
Non-trainable params: 0
_________________________________________________________________
Model: "sequential"
_________________________________________________________________
 Layer (type)                Output Shape              Param #   
=================================================================
 conv2d (Conv2D)             (None, 26, 26, 16)        160       
                                                                 
 max_pooling2d (MaxPooling2D  (None, 13, 13, 16)       0         
 )                                                               
                                                                 
 dropout (Dropout)           (None, 13, 13, 16)        0         
                                                                 
 conv2d_1 (Conv2D)           (None, 11, 11, 32)        4640      
                                                                 
 max_pooling2d_1 (MaxPooling  (None, 5, 5, 32)         0         
 2D)                                                             
                                                                 
 dropout_1 (Dropout)         (None, 5, 5, 32)          0         
                                                                 
 flatten (Flatten)           (None, 800)               0         
                                                                 
 dense (Dense)               (None, 64)                51264     
                                                                 
 dropout_2 (Dropout)         (None, 64)                0         
                                                                 
 dense_1 (Dense)             (None, 10)                650       
                                                                 
=================================================================
Total params: 56,714
Trainable params: 56,714
Non-trainable params: 0
_________________________________________________________________
[name: "/device:CPU:0"
device_type: "CPU"
memory_limit: 268435456
locality {
}
incarnation: 17499520978346953350
xla_global_id: -1
…
